…
        "date": "2025-12-12 21:56:47",
        "device_used": "mps",
        "pytorch_version": "2.9.1"
    },
    "dataset_info": {
        "total_images": 5840,
        "train_size": 4433,
        "val_size": 783,
        "test_size": 624,
        "class_distribution": {
            "train": {
                "1": 3293,
                "0": 1140
            },
            "test": {
                "0": 234,
                "1": 390
            }
        }
    },
    "models_info": {
        "custom_cnn": {
            "parameters": 26211842,
            "architecture": "PneumoniaCNN(\n  (conv1): Conv2d(3, 32, kernel_size=(3, 3), stride=(1, 1), padding=(1, 1))\n  (bn1): BatchNorm2d(32, eps=1e-05, momentum=0.1, affine=True, track_running_stats=True)\n  (conv2): Conv2d(32, 64, kernel_size=(3, 3), stride=(1, 1), padding=(1, 1))\n  (bn2): BatchNorm2d(64, eps=1e-05, momentum=0.1, affine=True, track_running_stats=True)\n  (conv3): Conv2d(64, 128, kernel_size=(3, 3), stride=(1, 1), padding=(1, 1))\n  (bn3): BatchNorm2d(128, eps=1e-05, momentum=0.1, affine=True, track_running_stats=True)\n  (conv4): Conv2d(128, 256, kernel_size=(3, 3), stride=(1, 1), padding=(1, 1))\n  (bn4): BatchNorm2d(256, eps=1e-05, momentum=0.1, affine=True, track_running_stats=True)\n  (pool): MaxPool2d(kernel_size=2, stride=2, padding=0, dilation=1, ceil_mode=False)\n  (dropout): Dropout(p=0.5, inplace=False)\n  (fc1): Linear(in_features=50176, out_features=512, bias=True)\n  (fc2): Linear(in_features=512, out_features=256, bias=True)\n  (fc3): Linear(in_features=256, out_features=2, bias=True)\n)"
        },
        "vgg16": {
            "parameters": 121676610,
            "architecture": "VGG16 with modified classifier"
        },
        "resnet50": {
            "parameters": 26132034,
            "architecture": "ResNet50 with modified final layers"
        }
    },
    "best_model": "resnet50",
    "performance_summary": {
        "custom_cnn": {
…
